python/data.pth (torch, 102911 bytes, 6 tensors)

l1.weight f4 [8, 1339]
00000000: e631 c8be 2fdc a0bf 0d95 883f 6ead af3e
00000010: 3e60 b0bf af4a 53bf c184 d1be fae3 c33f
00000020: be35 c03f 2896 2940 df8e 92bd 22c6 c5be
00000030: 29a9 5fbe 33ff 2440 2a51 983e 1d38 c8bd
00000040: 058d e8bd ee25 433f 3609 9e3f a414 13be
00000050: 7af8 363f 440d 39bf 655c 06be 3f74 2c3f
00000060: ca59 71be 808f d43e d50e 8b3e 6c68 7fbe
00000070: 83ba e03e f5a1 683f c336 5ebf a1b0 2e3d
00000080: e0dc 9fbe 794d 58bf dd47 debc 7018 cdba
00000090: 8ca2 d3be 58f2 1c40 ea48 463c 5bc2 1540
000000a0: c67c 20be 67f7 63be 10e1 9bbf bcdb 6ebe
000000b0: 0b67 85bf ac37 0ec0 1ce7 adbd d73a 8240
000000c0: b694 7d40 dc75 7740 66b3 0fbf 15bf 33bd
000000d0: 4382 be3c 23ef de3f 20d6 a9be c0b5 68bc
000000e0: 06a9 c2bf a191 edbe 5c4c 33be 934d 29be
000000f0: 8a5e e4bc a404 2740 5cbf f13c fb2f ff3e
00000100: 20f2 8dbe b36b d0be a655 63be 1b41 d7bf
00000110: 1b0b 523e cc4f 58bf 3248 e33e eeec d13e
00000120: afdf e3bd 6373 1c3f 79f8 843f c0b1 0640
00000130: 0af9 493f d289 523f b100 d7bf 4279 0f3e
00000140: 4b2d 713d fb33 48bf ef76 c53f e56f ea3e
00000150: 96b3 ce3e a32e dcbf 43af 223f 8326 35bf
00000160: 79bf c0be 0d03 193e b3b1 dabd 0970 e8be
00000170: d0a5 113f 01e1 193e 32ae f83c 25dc a43f
00000180: feb0 38bf ccea 81bf 57a4 6f3c 8538 5fbd
00000190: 1adf 7a3f 47a8 b8be 6832 f6be ad27 ee3f
000001a0: 4603 40bf 4f9e 79be 2e8b 95bd 647b 093e
000001b0: 348f 5dbf 86fd 7d40 b249 8e3f 31ca 0d40
000001c0: 74fb d43b 74c2 3c40 094d a73f 89c3 c73f
000001d0: dd2f e83d d96d 7b3f 2707 993f 0d7c bc3f
000001e0: 8860 743f 477a 77bf b608 873f b95d cf3f
000001f0: b603 b33f 4acd 163e 4caa 75bd 4894 3fbc
00000200: 870f b6be ee9e 043e 7b9d c93e 343d 7e3d
00000210: 8275 233f 442f 913f f55b 52bd 9e5e d7bf
00000220: 58b5 69bd 64f3 ea3e 6f00 35bf 2ce4 4f3f
00000230: 72e1 91c0 0ea4 cbbe 7aa4 38be 9708 eabe
00000240: abef c93f fa12 173f 22c8 473f 56b1 e2bf
00000250: 9a84 4dbf fe98 0bbe 3ca4 1ebd 0c17 c13f
00000260: ddd2 2340 d317 16be 7f0b 313e 7aea 0640
00000270: 6a82 293f 6285 0e40 0074 a7b8 4e7a af40
00000280: 77c6 633f dae4 ed3f 29aa b0bf 2463 76be
00000290: 16b4 f0be b908 acbf 8f42 52bf 4960 0f40
000002a0: ebcf 73bf d108 893f e987 44bf 4e5e 493f
000002b0: 79af dfbe 51fc 1140 5b4b f9be 9a99 7f3f
000002c0: 0015 a9bf 59fe 12c0 e8e2 dcbe ded4 9c3d
000002d0: 881a 7f3e 1a90 e2bb 4ee9 43bf 1223 96bf
000002e0: e34e 9bbe 7100 c5be 8844 e33e 41f3 94be
000002f0: 2c51 87bd 805b 9fbe 65d7 f0bd 5ca9 1740
00000300: 9ad9 abbd fd23 4e3f 10c2 ccbf 6b8d 5a40
00000310: 3ec7 943e 0054 74b8 0426 4d3f f3eb 86c0
00000320: 1e74 c6bf 577a 16be 136c a6be 2f11 5f40
00000330: 9305 3abf 00f2 c63f 67ce 85c0 b89e 1ebf
00000340: e1f3 20bf b486 833f c653 7abe ac14 d5bd
00000350: 9f94 36bf bfb9 3e3e 0886 b7bf 5c27 1e3f
00000360: c2d1 d23f 445d e23e a3a1 9e3f 0d2b 00c0
00000370: 4703 68bf 6957 89bf 207e 2a40 6fad 193d
00000380: 1b98 19bf 9c00 c8be b1b9 a53e a298 4d3f
00000390: 606f 393f f558 ccbf 63a0 2a40 3ad2 0c3f
000003a0: 9102 723f 64d5 d13b 4897 5ebf 4315 9340
000003b0: 784d 553e f76b 923f f605 cd3f 29d1 b0bd
000003c0: daf7 5d3c 3d41 df3f 177a 7d40 14c8 0c40
000003d0: acdf d43f 28f4 dd3e 65bc 57be 8c05 89bc
000003e0: a485 333f bc3e a0bb bcc0 603e 0e45 da3e
000003f0: 68b3 183f 765a f9be c852 7b3c 4dec 8f3e
-0.3910057 -1.2567195 1.0670487 0.34312004 -1.3779371 -0.82535833 -0.40921596 1.5303948
1.5016401 2.6497898 -0.07156157 -0.38627726 -0.21841873 2.5780761 0.29749423 -0.09776328
-0.11355022 0.7622975 1.2346561 -0.14363343 0.71472895 -0.72285867 -0.13121183 0.6736488
-0.23569408 0.41515732 0.27159753 -0.24942178 0.43892297 0.90872127 -0.8680231 0.042648915
-0.31223202 -0.84493214 -0.027133876 -0.0015647542 -0.4133495 2.4522915 0.012102345 2.3399875
-0.15672597 -0.22262345 -1.2178059 -0.2332601 -1.0422071 -2.222148 -0.08491346 4.0696826
3.9622016 3.8665686 -0.56133115 -0.043883402 0.023255473 1.7416729 -0.33171177 -0.014203489
-1.5207832 -0.4640017 -0.17509598 -0.16533498 -0.027877111 2.6096582 0.029510193 0.49841294
-0.2772379 -0.40707168 -0.22200641 -1.6816744 0.20512049 -0.8449676 0.44391018 0.41001076
-0.11126649 0.61113566 1.0388328 2.104599 0.7889563 0.8224155 -1.6797086 0.140111
0.058881085 -0.78204316 1.5426921 0.45788494 0.40371388 -1.7201732 0.6354868 -0.7076189
-0.37646082 0.1494257 -0.10678425 -0.45397976 0.56893635 0.15027238 0.0303565 1.2879683
-0.7214507 -1.0149779 0.014626584 -0.05449726 0.97996676 -0.36065885 -0.48085332 1.8605858
-0.75004995 -0.24376796 -0.07301937 0.13425976 -0.86546636 3.9685988 1.111624 2.2154658
0.006499702 2.9493685 1.3070384 1.5606548 0.11337254 0.9821449 1.1955308 1.4725357
0.95459795 -0.96670955 1.0549533 1.6200477 1.3985507 0.14726749 -0.05997686 -0.011693068
-0.3555872 0.12951252 0.3937796 0.062070087 0.6385118 1.1342549 -0.05135723 -1.682575
-0.05705771 0.45888817 -0.70703787 0.8120754 -4.55877 -0.397736 -0.18031493 -0.4570968
1.5776266 0.5901333 0.78039753 -1.7710369 -0.8028046 -0.1363258 -0.038730845 1.5085158
2.559745 -0.14657526 0.17289542 2.1080613 0.6621462 2.226891 -7.984787e-05 5.48368
0.8897471 1.8585465 -1.3801929 -0.24061257 -0.47012395 -1.3440162 -0.8213281 2.2402518
-0.9523913 1.0705816 -0.7676988 0.7865952 -0.43688563 2.2810252 -0.48690304 0.9984375
-1.3209534 -2.2967741 -0.43141866 0.07657789 0.24912465 -0.006914151 -0.7652787 -1.1729453
-0.30333623 -0.384769 0.44388223 -0.29091838 -0.06607279 -0.31124496 -0.11759833 2.3697119
-0.083911136 0.80523664 -1.5996723 3.4148815 0.2905826 -5.8252364e-05 0.8013613 -4.2163024
-1.5504186 -0.14695106 -0.3250433 3.4854238 -0.72664756 1.5542603 -4.1814456 -0.61960936
-0.6287213 1.0275483 -0.2444602 -0.104043335 -0.7132053 0.18625544 -1.4337778 0.6177881
1.6470263 0.4421178 1.2393078 -2.0026276 -0.9063 -1.07298 2.663948 0.037518915
-0.5999772 -0.39062965 0.32368234 0.80311024 0.7243557 -1.5964648 2.6660392 0.5500828
0.94535166 0.006403612 -0.86949587 4.5963454 0.20830333 1.1439198 1.6017444 -0.08633644
0.013547862 1.7441784 3.9605768 2.1997118 1.6630759 0.4335034 -0.2106796 -0.016726278
0.70125794 -0.004890291 0.21948522 0.4263081 0.5964875 -0.4870183 0.015339561 0.2810997

l1.bias f4 [8]
00000000: 77d9 033f 9bab 0040 0cb2 0740 ce03 433f
00000010: 523c 8a3e d955 8d3f 5b4b 583f 8a2e 293f
0.515037 2.010474 2.120242 0.7617768 0.26999146 1.1041824 0.84489983 0.6608664

l2.weight f4 [8, 8]
00000000: bc89 2040 0cbb c83e ff7b b6bf eacf 2e40
00000010: 8e59 8abf bf02 34bf e177 bf3f ddf0 b43f
00000020: 13e8 883f cf79 3940 7d47 6a3f 22b7 483e
00000030: cc14 e0be 100a a83c 02b5 3cc0 df9c c73f
00000040: 094d 88bf 4a26 32be ceeb 283d decf 18c0
00000050: 0f29 e3bd 3588 9b40 96cc 1e3f 02bd 933f
00000060: 22f9 02c0 a4cb febf 975a 9e3f f59d 0540
00000070: 4725 6040 dbe9 97bf 1e1e d43e 31f6 fe3f
00000080: c90a dcbe ed7f a4bf e257 8abf 53c2 88bf
00000090: e4f8 0b3f 9bfa 0d3e e35f 513e 54cf 093f
000000a0: 8f50 c8bd d41c 98bf cef5 fe3f fcfb 1740
000000b0: 31b7 d9bf f875 c13f 0270 9cbe 4d23 a4bf
000000c0: 638b f7bf 349b 7a40 0d3d 753f d72f aa3d
000000d0: 7778 32bf 9d73 cb3c e812 eb3f 690d 0bc0
000000e0: 73d9 4bbe 289f 5fbf bfd0 2c40 f3cc 09c0
000000f0: e337 f3bf b22c e0bf 9aa9 b33f b329 cc3f
2.5084066 0.39205205 -1.4256591 2.73144 -1.080858 -0.7031669 1.4958459 1.4136006
1.0695823 2.8980596 0.9151533 0.1960111 -0.43765867 0.02051261 -2.9485478 1.5594748
-1.0648509 -0.17397419 0.041240506 -2.3876872 -0.11091816 4.860377 0.62030923 1.1542056
-2.0464559 -1.9905896 1.2371396 2.087766 3.5022752 -1.1868242 0.41429228 1.9918882
-0.42976978 -1.285154 -1.080807 -1.0684303 0.5467665 0.1386513 0.20446734 0.5383198
-0.0978099 -1.1883798 1.9918764 2.374755 -1.700903 1.5114126 -0.30554205 -1.2823273
-1.9339412 3.9157228 0.9579628 0.08309906 -0.69715065 0.024835402 1.8365145 -2.1726935
-0.19907169 -0.8735223 2.7002409 -2.153134 -1.900143 -1.751364 1.4036133 1.5950226

l2.bias f4 [8]
00000000: 6d6e 54bf 6a2f ffbe 67bf b1bf d030 a8be
00000010: f380 5c3f 3854 a9bc 8cdd ac3f 3400 843e
-0.82980996 -0.49840862 -1.3886536 -0.3284974 0.8613426 -0.020670041 1.3505111 0.25781405

l3.weight f4 [692, 8]
00000000: ddf3 6ec0 8027 6abf 990a 7cc1 3c92 41c1
00000010: 8b6d 05c1 ebaf 113f 3759 0a40 b553 49c1
00000020: ad67 cdc0 8295 d03f af27 e5bf b9c4 bdc0
00000030: 806f f4c0 91cf 15c0 e385 88be a505 4e3f
00000040: 0341 52c0 09df 983f d0fe 7cc1 fa6a 4ac1
00000050: 2747 43c1 253d 1cc1 553f 1b40 8ef7 9bc0
00000060: 35cd 24c0 e7bf 4dbf a00c 51bf a291 aebf
00000070: 46f6 88c1 1b4a abbf 5b5c 93bf 272b 0dbf
00000080: d3c4 6cc1 a510 0d40 4fc6 633f 6e6c febf
00000090: 93d3 0cc1 d713 83c1 1dec a8c0 06d9 e3c0
000000a0: d6e7 43c0 ab50 ac3f 9d32 04c1 8f8f 21c0
000000b0: 13ae f0c0 367d 67c0 4998 9fbd d1c2 dcbf
000000c0: f46c d0c1 b082 5fc1 cf07 2840 4ec3 8ac0
000000d0: fdf6 61c1 de86 0ec0 8fb5 3e40 97c3 6dc0
000000e0: 2cac 96c0 39c5 5d3e efe1 0cc0 f9e1 88bf
000000f0: feb6 13c2 facb 84bf fc80 a6be 6cac 60bf
00000100: 4b54 9ec0 eaf1 7ec0 9378 88bf 6a53 95c1
00000110: 700e 50c1 122f 8a3f 9b58 bf3f 1772 b8c0
00000120: 72ab 8ec1 893f 1f40 861b 95bf 557a e4be
00000130: 3a34 03c1 fd5c 67c1 6e0c 77c0 47a9 67c1
00000140: aaf6 c1c1 f088 d440 9fb0 5dc1 a7ca 0cc1
00000150: bb01 96c1 9539 eebe 50b5 08c0 e8f0 b53e
00000160: 0adc 80c1 0dce bd3f b76b 94c0 e8f3 86bf
00000170: 5345 12c1 6e95 873f 5f80 14c1 60d9 dcbe
00000180: f20f 30c0 ee0d 9abf 1516 123e c9f7 88bf
00000190: 9059 cdc1 2c78 3fbf 00f0 353e 6f47 aec1
000001a0: 3f36 84bf 1182 c8bf 0dfb 95c1 df05 adc0
000001b0: 35e4 63c2 e166 acbe 229b a13e a696 8ebe
000001c0: f972 5bc0 aa48 4240 553c 8bc1 f9cd a1c0
000001d0: 025e 72c1 76b8 013e b8fc 5d3e fe9b 9cc1
000001e0: 415f a2bf ad48 eabf a9cd bfc1 935d a7c0
000001f0: 6c7d fec0 c231 203f b424 9c3f 585d 97c0
00000200: 3601 68c0 7041 c13f 85c6 87c1 106b 22c1
00000210: c8ed 46c1 8282 bd3f 7465 52bf 1d32 d2bf
00000220: c3c6 d6bf 2863 d3bf 24af 46c0 3dae 8cbf
00000230: 4843 57c2 0ddf df3e 6604 cbbf b649 7ebe
00000240: c015 57c0 37eb b7c1 11b5 b2c1 0eb0 d6bf
00000250: f398 06c2 4d0d 6540 2395 10bf 45e6 dcbf
00000260: c14d 03bf 7269 76c0 09e3 8abf 9660 41bf
00000270: 2e95 7fc1 1a97 93c1 6289 73bf 7f1b 88c1
00000280: d6d6 74c0 b7d0 9bbf 2d65 9bbf c531 79bd
00000290: 32af eac0 106f 46c1 d969 f1c0 74fe dfc0
000002a0: de30 67c0 29a0 3ebf 256e 43bf 3aa4 f5be
000002b0: 72f3 11c1 24a4 ccbf 3d68 3c3e 7537 4fc1
000002c0: 1ade 023f ea76 ebc0 5559 3cc1 0976 59c0
000002d0: 44f3 03c1 70af 4ec1 28fb c2be 9fa9 67c1
000002e0: cdf0 5c3c 68d0 64c0 6a30 22c1 75d5 d6be
000002f0: 954a 61c1 c5f2 e2c0 3129 6abf 2eb5 b8c0
00000300: d43b 9bc0 8acd 78c1 639a 0abe 0d7d 493e
00000310: 6e05 52c1 58cb 6ec0 f84c f0bf 5cd3 87c0
00000320: 8dc4 bdbf 1a3d bbbf 7d08 a8bf 74cc 78bf
00000330: 67ec 87c1 90ed 7fc0 f5b0 ecbf 0357 4ebf
00000340: f788 cdbf f54c b9bf 1b9d edbf fd4d dfbd
00000350: 78e4 5cc1 b9b5 56c0 3da3 bec0 6eff 8ac1
00000360: ed1f d5be a1e5 75bf fe95 23c1 9489 d6bf
00000370: 1e84 00c1 bc63 1e3f 72a3 02c1 65ac 08c1
00000380: 93bd 94bf 60ce 78c0 4379 c9bd aa72 dfbf
00000390: 074c 40c1 40b0 55c0 b074 45c1 2f29 09c0
000003a0: e08a 9dbf 0344 46c1 e3e5 87c0 cc1e d3c0
000003b0: 6783 0dc1 21ac e43f 7a0e 753d 60b2 adc0
000003c0: 96bd b4c0 769e 2140 78dc 2e3f 62c7 9fc0
000003d0: a165 9cbe 09c3 a5c1 ff6f 01c1 2f06 81c1
000003e0: 529c e8bf 46bb cabf ab8f dcbf 80b6 e5bf
000003f0: d6bd 78c1 475c 23c1 ec8a 54c1 ece7 833f
-3.7336342 -0.9146652 -15.752587 -12.098202 -8.339244 0.56909055 2.1616952 -12.582936
-6.4189057 1.6295626 -1.7902735 -5.930264 -7.638611 -2.3407938 -0.26664647 0.8047736
-3.285218 1.1943065 -15.81221 -12.651117 -12.204871 -9.764928 2.4257405 -4.873969
-2.5750248 -0.80370945 -0.8165989 -1.3638194 -17.12025 -1.338199 -1.151256 -0.5514397
-14.798053 2.204141 0.8897447 -1.987684 -8.801654 -16.384687 -5.2788224 -7.120242
-3.0610251 1.3462118 -8.262357 -2.5243871 -7.5212493 -3.6170173 -0.07792718 -1.7246953
-26.0532 -13.969406 2.6254766 -4.336341 -14.1228 -2.2269816 2.9798315 -3.7150629
-4.708517 0.21657266 -2.20129 -1.0693961 -36.928703 -1.0374749 -0.32520282 -0.87763095
-4.9477897 -3.9835153 -1.0661796 -18.66573 -13.003525 1.0795615 1.4948915 -5.763927
-17.833714 2.4882529 -1.1649024 -0.44624582 -8.200251 -14.460202 -3.8601336 -14.478827
-24.245441 6.641716 -13.85562 -8.799476 -18.750845 -0.46528307 -2.1360664 0.3553536
-16.10744 1.4828507 -4.638149 -1.0543184 -9.141925 1.0592477 -9.281341 -0.43134594
-2.7509732 -1.2035501 0.14266236 -1.0700618 -25.668732 -0.7479274 0.17767334 -21.78488
-1.0329055 -1.5664693 -18.747583 -5.4069667 -56.97286 -0.3367224 0.3156367 -0.2784931
-3.4288924 3.035685 -17.404459 -5.056393 -15.147951 0.12668023 0.21678436 -19.576168
-1.2685319 -1.8303429 -23.97542 -5.2301726 -7.9528103 0.62575924 1.2198701 -4.7301445
-3.625074 1.5098095 -16.971933 -10.151138 -12.433052 1.4805453 -0.82186055 -1.6421543
-1.6779407 -1.6514635 -3.1044397 -1.0990673 -53.815704 0.43724862 -1.5860717 -0.24832806
-3.3607025 -22.989851 -22.338411 -1.6772478 -33.649364 3.5789368 -0.56477565 -1.7257773
-0.5129052 -3.8501859 -1.0850536 -0.75538003 -15.973921 -18.44878 -0.95131505 -17.013426
-3.8256125 -1.217307 -1.2140251 -0.06083848 -7.333886 -12.402115 -7.544171 -6.999811
-3.6123576 -0.74463135 -0.7633994 -0.47976857 -9.121935 -1.5987592 0.18399139 -12.951039
0.5112015 -7.358266 -11.77181 -3.3978293 -8.246891 -12.917831 -0.38082242 -14.478911
0.013485146 -3.57522 -10.13682 -0.4195973 -14.0807085 -7.092135 -0.91469103 -5.7721167
-4.851053 -15.55018 -0.13535456 0.1967661 -13.126326 -3.731161 -1.8773489 -4.2445507
-1.4825608 -1.4628022 -1.312759 -0.9718697 -16.99043 -3.9988747 -1.8491503 -0.8060152
-1.6057423 -1.447661 -1.856357 -0.10903547 -13.8057785 -3.3548415 -5.9574265 -17.374722
-0.4162592 -0.9605351 -10.224119 -1.6760736 -8.032255 0.6187093 -8.164904 -8.5420885
-1.1620353 -3.8875961 -0.09837582 -1.7456868 -12.018561 -3.3388824 -12.340988 -2.1431386
-1.2308006 -12.391604 -4.2468123 -6.5975094 -8.844581 1.786503 0.05982826 -5.4280243
-5.648143 2.5252967 0.6830516 -4.9930887 -0.30546287 -20.720232 -8.089843 -16.12802
-1.8172705 -1.5838401 -1.7231344 -1.794632 -15.546347 -10.210029 -13.283916 1.0305152

l3.bias f4 [692]
00000000: 5ff3 16c1 e787 a1c1 5a09 c8c0 0115 7ac1
00000010: 1967 e6c0 f68a 85c1 798c 13c1 dce4 3bbe
00000020: 3028 19c1 b9cb 1ec1 9427 e7c0 ac16 55c1
00000030: 7da7 02c1 ea8f d3be 9c23 1ec1 ed0c 75c1
00000040: 76e2 5dc1 7e3f c1be bfb4 ccc0 eaad 2dc1
00000050: acaf 29c1 f531 89c1 152f 23c1 9314 46c1
00000060: 2140 36c1 7a2c 70c1 9d0a 41c1 aa5b 63c1
00000070: 5190 60c1 637a 39c1 5f66 21c1 e5ed 2bc1
00000080: 2776 2cc1 95d9 32c1 d2f5 68c1 7eab 25c1
00000090: 0177 48c1 11ef 2bc1 d416 37c1 0510 51c1
000000a0: d0ee 81c1 f600 51c1 2fe4 52c1 822f d0c0
000000b0: dfb9 13c1 e8a9 48c1 054c 64c1 e46d 51c1
000000c0: 83c5 45c1 628a 48c1 59cc 40c1 cf30 6bc1
000000d0: ef46 45c1 e844 1cc1 6f93 35c1 3248 41c1
000000e0: 8c61 6ec1 2a3d 11c1 44eb 56c1 ef0f aac0
000000f0: 1fcd 6bc1 da64 6bc1 fee8 39c1 6e87 41c1
00000100: b18e 42c1 3ede 9abf 2c1a 2fc1 e824 49c1
00000110: 5241 56c1 f9e8 4fc1 ef42 3ac1 7056 38c1
00000120: 27c2 78c1 317e 63c1 d14f 23c1 7d22 4bc1
00000130: 178e 55c1 48e3 58c1 318a 84c1 2bc2 30c1
00000140: 522a 59c1 8251 25c1 9352 39c1 e25f 86c1
00000150: 9337 82c1 8819 70c1 06ae 3bc1 406d 1ac1
00000160: a843 57c1 8182 0dc1 c7d4 32c1 5b1e 33c1
00000170: 2087 62c1 d8d0 3fc1 8cdd 3ec1 02fb 4ec1
00000180: 59d9 61c1 88fd 04c1 0508 52c1 bb8a 6fc1
00000190: 3b33 3ac1 5d75 6ac1 b5b2 32c1 5ca9 efbd
000001a0: 6836 d8bd ac32 3bc1 bd5c 1cc1 188c 1abe
000001b0: 71a2 44c1 27d1 42c1 755c 65c1 17fe 46c1
000001c0: db68 5fc1 415e 56c1 e23c 55c1 6a1f 24c1
000001d0: 4f08 3cc1 3d3e 87c1 f4b5 b5bf bfd3 2ec1
000001e0: b150 6ac1 5aec 64c1 6e96 48c1 4f90 90c1
000001f0: 907b 5bc1 6823 63c1 df84 37c1 7558 3bc1
00000200: 9122 03bf 4f02 75c1 1d56 38c1 b3a6 6fc1
00000210: 3608 3ac1 de4b 63c1 07b1 2ebe 0059 41c1
00000220: 3383 4dc1 122d 78c1 551a 4dc1 7937 51c1
00000230: b45c a0c1 a611 12c1 dfb7 d9be 79a3 57c1
00000240: 3d58 3ec1 a855 72c1 8e6e 6cc1 b53e 61c1
00000250: 23e4 77c1 d79d 5cc1 66e4 50c1 5de7 71c1
00000260: 519e 47c1 4814 3cc1 fedb 49c1 45cd 63c1
00000270: 96b7 22c1 5f75 86c1 02e5 44c1 d3db 35c1
00000280: c4ca 77c1 88fb 6ac1 dee4 40c1 5cb0 66c1
00000290: 7e25 88c1 c7a8 6cc1 c867 7fc1 99f2 6ac1
000002a0: 5967 10c1 0615 bebe 73a1 36c1 1cd2 223d
000002b0: 1b71 ab3d 1ea7 51c1 7ee0 59bf ae23 4dc1
000002c0: 813d 7ac1 1ec2 5cc1 9f33 42c1 41eb 78c1
000002d0: c328 243d 4c0c 25c1 abbe 72c1 3bbe 88c1
000002e0: 1609 1fc1 75d7 58c1 edb6 19c1 0305 7ac1
000002f0: 7049 a4be 9e2f 953b a14a 913d 9c89 5bbf
00000300: 2a2b 37c1 7781 40c1 ff99 6fbe 6fe9 31c1
00000310: 97ae 96be 32c6 6fbe 5b48 c1be 1c9b afbe
00000320: 7f1a 41c1 586b 7ac1 b29d 80c1 ee08 89c1
00000330: 5d16 05c1 c6f0 5fc1 df33 05c1 936d 92c1
00000340: 96d1 58c1 6736 3bc1 385c f43c 0193 3dc1
00000350: c022 7cc1 151e 34c1 94f1 4dc1 7f40 48c1
00000360: dbd2 8dc1 3f4d 3dc1 1005 15c1 d394 86c1
00000370: b17f 7bc1 8b76 9dc1 411b 12c1 c43b 39c1
00000380: e86b 74c1 0775 4ac1 7b5b 4fc1 4a60 80c1
00000390: 100d 74c1 64d8 83c1 4e48 2ec1 743d 1bc1
000003a0: 90b8 35c1 d1e6 7cc1 ee0f 6ec1 a627 73c1
000003b0: d31f 66c1 eb02 4dc1 a1c1 61c1 e430 aebd
000003c0: 2e74 89c1 e43b 5fc1 81e5 71c1 94d2 74c1
000003d0: facf 5ec1 2297 8ec1 3c9a 45c1 a032 5ac1
000003e0: 61a2 0cc1 7a06 28c1 3da9 62c1 456a 7bc1
000003f0: c4c8 1dc1 c5ea 49c1 add4 78c1 801c 32c1
-9.434417 -20.191359 -6.2511415 -15.630128 -7.200085 -16.692852 -9.221795 -0.18349022
-9.572311 -9.924737 -7.2235813 -13.318035 -8.165891 -0.41320735 -9.883694 -15.315656
-13.867788 -0.37743753 -6.3970637 -10.8549595 -10.605389 -17.149393 -10.198995 -12.380023
-11.390656 -15.010859 -12.065091 -14.209879 -14.0352335 -11.59238 -10.087493 -10.74558
-10.778846 -11.178121 -14.560015 -10.354368 -12.529054 -10.745866 -11.443073 -13.066411
-16.241608 -13.062735 -13.180709 -6.5057993 -9.232879 -12.541481 -14.268559 -13.089329
-12.360721 -12.533785 -12.04989 -14.699416 -12.329818 -9.766823 -11.348495 -12.080126
-14.898815 -9.077433 -13.432438 -5.314445 -14.737578 -14.712122 -11.619383 -12.095564
-12.159837 -1.2099073 -10.94389 -12.57151 -13.390947 -12.994378 -11.641341 -11.521103
-15.5474 -14.218308 -10.206986 -12.69592 -13.34719 -13.555489 -16.567476 -11.047404
-13.572832 -10.332399 -11.58266 -16.796818 -16.277136 -15.006233 -11.729986 -9.651672
-13.454018 -8.844361 -11.176948 -11.194911 -14.1579895 -11.988487 -11.929089 -12.936281
-14.115563 -8.311897 -13.126958 -14.97137 -11.637507 -14.653653 -11.16863 -0.117022246
-0.10557252 -11.699871 -9.772641 -0.15092504 -12.289659 -12.176063 -14.3350725 -12.437034
-13.9630995 -13.398011 -13.327364 -10.257669 -11.752028 -16.90539 -1.4196153 -10.926696
-14.6447 -14.307703 -12.536726 -18.070463 -13.717667 -14.196144 -11.469939 -11.709096
-0.5122462 -15.313064 -11.521024 -14.978198 -11.627005 -14.206022 -0.17059718 -12.0842285
-12.844531 -15.5110035 -12.818929 -13.076043 -20.045265 -9.129309 -0.42523095 -13.47741
-11.896543 -15.145912 -14.776991 -14.077809 -15.493197 -13.788535 -13.055761 -15.118985
-12.476151 -11.7549515 -12.616209 -14.237615 -10.169821 -16.80731 -12.30591 -11.366168
-15.487003 -14.686409 -12.055876 -14.4180565 -17.018307 -14.791205 -15.962837 -14.684228
-9.025231 -0.37125415 -11.414416 0.039751157 0.083711825 -13.1033 -0.8510817 -12.821211
-15.640016 -13.797392 -12.137603 -15.557435 0.040077936 -10.315502 -15.17155 -17.092886
-9.939718 -13.552602 -9.60716 -15.626224 -0.32087278 0.0045527956 0.070943125 -0.8575685
-11.448038 -12.031608 -0.23398589 -11.119491 -0.29430076 -0.2341545 -0.37750515 -0.34298027
-12.068969 -15.651207 -16.077 -17.12936 -8.31796 -13.996283 -8.325164 -18.303503
-13.551168 -11.700782 0.02982913 -11.84839 -15.758484 -11.257344 -12.871479 -12.515746
-17.727957 -11.831359 -9.313736 -16.822668 -15.718675 -19.682882 -9.131654 -11.577091
-15.276344 -12.653571 -12.959834 -16.047016 -15.253189 -16.48066 -10.8926525 -9.702503
-11.357559 -15.806352 -14.878889 -15.19718 -14.38277 -12.813212 -14.109773 -0.08505419
-17.181728 -13.952122 -15.118531 -15.301411 -13.925776 -17.823795 -12.350155 -13.63736
-8.789643 -10.501581 -14.166318 -15.713445 -9.861515 -12.619817 -15.551923 -11.131958
